src/booster_runner/models/k1.onnx (onnx, 827148 bytes, 10 tensors)

actor.0.weight f4 [512, 75]
000000 c9 34 aa 3d 6a 6d 18 be c8 c0 ba bc 4e 0b 5b be
       0.08310849 -0.14885488 -0.022797003 -0.21391031
000010 38 09 7d be ec 8c 60 3d bb 80 19 3d 69 9d 4d 3d
       -0.24710548 0.054821894 0.037476283 0.050198946
000020 af b7 94 3d ea 21 84 bd 40 2a 51 3c 42 c2 3e 3d
       0.07261597 -0.06451781 0.012766421 0.046571977
000030 be 5d 83 bd 79 03 86 bc 80 9a f4 3b 10 5e 9e 3d
       -0.06414364 -0.016359078 0.007464707 0.07732785
000040 8b e9 87 be ab 9d 99 bd ea 4e ce bc 18 72 d5 ba
       -0.26545367 -0.07500776 -0.025184114 -0.0016284613
000050 7c 2e e9 bc 1c 53 61 bd 21 66 e5 3b c9 76 e7 3d
       -0.028464548 -0.0550109 0.0070007 0.11301953
000060 4a 7a a2 3c e2 eb 0a bd 0f fa 07 3e a7 eb 0b bd
       0.019833703 -0.03391636 0.13278984 -0.034160282
000070 20 7f d2 3c c7 5f 7a bd 83 ca 16 3c 89 c9 37 3d
       0.025695384 -0.061126497 0.009203556 0.044869933
000080 30 2b 9d bc 8e 70 04 bd b1 5f 80 bc ff 57 a3 3d
       -0.019185632 -0.032333903 -0.01567063 0.07975768
000090 b9 9e c2 bc 8e 91 ea 3c c1 4c 87 bc 08 41 f8 3d
       -0.023757325 0.028633859 -0.016516091 0.12121779
0000a0 dc bb 99 bc ca 92 b9 3b b4 ee 48 3d 2e 53 fd b9
       -0.018766336 0.0056632506 0.04905577 -0.00048317894
0000b0 25 82 32 be 09 46 9c 3d c3 8e ba bd 3c f9 54 be
       -0.17432459 0.07630546 -0.09109261 -0.207982
0000c0 87 3f a4 bb 7e df 0e bc b7 e4 cf bb 10 26 94 bc
       -0.005012456 -0.008720277 -0.0063444036 -0.018084556
0000d0 a8 32 65 3b fc 11 59 bd d8 af 87 3d fa 72 3c be
       0.003497282 -0.052995667 0.066253364 -0.18403235
0000e0 98 40 f9 3b 1a d9 1e bb 7b 23 b2 bc d4 e5 c3 bd
       0.007606577 -0.002423829 -0.021745434 -0.095653206
0000f0 e9 07 89 be 97 f8 fe 3c 00 0f 2d bd 67 55 1c 3e
       -0.26763847 0.031124396 -0.042250633 0.15266953
000100 27 82 34 bd a9 1f ba 3d 9a bc 90 bd c3 3d 92 3b
       -0.044069435 0.0908807 -0.07067223 0.004462929
000110 fe a1 25 bd 13 25 62 bc 72 e5 2b 3d b2 04 15 bd
       -0.04043769 -0.0138027845 0.041966863 -0.03638143
000120 74 49 d0 3e 79 87 aa be 18 d3 01 be 24 37 f3 bd
       0.4068104 -0.33306482 -0.12678182 -0.118757516
000130 25 7e 89 bd bc e9 3b 3e db 09 08 3d a4 6e e7 3d
       -0.06713513 0.18350881 0.033212524 0.113004
000140 33 0e 92 bc 79 9f 70 3d 3d a2 a7 b9 10 c3 67 3d
       -0.017829036 0.058745835 -0.000319736 0.05658251
000150 8c 36 04 3c 0f 74 1e 3c c5 39 5f 3d bf f5 20 be
       0.008069646 0.009671225 0.054498453 -0.15718745
000160 e2 a2 b9 bc d3 6e 9a 3d 3f 19 14 3d ae ae 95 be
       -0.022660676 0.07540669 0.03615689 -0.29234833
000170 d0 28 c3 3e 7c 2d 85 bd 4d 6f 27 be a7 ac 34 3d
       0.38117075 -0.06502816 -0.16351052 0.044109967
000180 b4 94 54 3d 1f ee 5c 3d 6c 20 7b bc 92 10 18 3e
       0.051899627 0.053938027 -0.015327554 0.14850071
000190 17 a0 5e 3d ec d2 04 bd d3 cc ab bd bb 42 dd bc
       0.054351892 -0.032427713 -0.083886765 -0.027009359
0001a0 a7 e8 e3 bc ad 1b 52 bd 33 9e 56 3d 7d 04 42 bd
       -0.027820898 -0.051295925 0.052396964 -0.04736756
0001b0 36 cb 71 3d db e8 1e 3d 64 96 cc 3d 4c 15 96 3c
       0.059031688 0.038796287 0.09989622 0.018320702
0001c0 09 db 38 3d 21 0b 37 3d 32 6a 1b 3e 68 1e d6 bd
       0.045130763 0.044688348 0.15177229 -0.10455018
0001d0 b7 e6 da bd 68 79 03 be c8 1b 6b 3d 26 0c 97 be
       -0.106885366 -0.12839282 0.05739954 -0.29501456
0001e0 e3 8a b0 3b b5 8e f1 bb a7 66 3a 3e fc e2 58 3d
       0.0053876503 -0.0073717483 0.18203221 0.052950844
0001f0 ac 98 f6 bc 08 a5 ce bc 25 60 eb bb ab d1 0f bc
       -0.030102096 -0.025225177 -0.007183092 -0.008778016
000200 3e 09 ec 3c 66 34 a3 3d 98 b6 bd bd 8d fc 8d bd
       0.028813 0.079689786 -0.092633426 -0.06932936
000210 d9 5f a4 3d 55 7d a0 bd 19 c3 96 bd 0d 79 fd bd
       0.08026094 -0.07836405 -0.07361431 -0.12376604
000220 b5 40 0d be 5c d8 cc 3d df 65 66 bd 87 80 6a 3c
       -0.13794215 0.10002205 -0.056249496 0.01431287
000230 fa aa 54 3d 2a c0 2b 3e 78 2d b3 3d 95 c3 00 bc
       0.05192087 0.16772524 0.08748907 -0.00785913
000240 58 15 84 be 71 dc 18 bd 90 b9 35 3e 89 61 f1 3c
       -0.25797534 -0.037319604 0.17746568 0.029465454
000250 33 e1 78 bd 28 3a c0 bd 21 3f bf bd c0 f1 08 3e
       -0.06076164 -0.093860924 -0.09338213 0.1337347
000260 45 9f 1c be 28 e3 4b 3c b0 d5 9b bd 0f e9 4e 3d
       -0.15295132 0.012444295 -0.07609117 0.05051523
000270 be 06 c2 bd 77 6b b9 bb b9 6e 54 bb f7 9d 4a bd
       -0.09473942 -0.0056585628 -0.0032414629 -0.049467053
000280 20 8d 88 bd 60 fc 98 3d 3d f0 3e bc d7 72 18 3b
       -0.066675425 0.07470012 -0.011653957 0.002326181
000290 19 8b 07 bc 92 cb 4e 3d a7 9a 2c bd d9 85 ba 3d
       -0.00827291 0.05048711 -0.042139675 0.09107561
0002a0 5b 38 1e be 2c 2d 57 bd a2 8f 70 bd 72 90 6d bd
       -0.15451185 -0.052533314 -0.05873073 -0.057999082
0002b0 78 b9 a3 3d 8e bd 4a bd 22 4b 24 3d 9f 7f 93 ba
       0.0799436 -0.04949718 0.040110715 -0.0011253244
0002c0 62 0d 42 be 10 eb 1f 3d b3 2b 4c 3b 5f b2 3a 3d
       -0.18950418 0.039042532 0.0031153976 0.045580264
0002d0 f3 26 99 bd d0 34 b8 3b 11 c9 a7 3b b1 9f 29 bc
       -0.07478132 0.00562153 0.0051204045 -0.010353015
0002e0 fb a8 a2 3d 8c 04 87 3d dd d9 88 bc ec cc 08 be
       0.07942387 0.06592664 -0.016705448 -0.13359421
0002f0 9e 84 e7 bd fe bb 27 be c1 f3 d4 3d 01 65 22 be
       -0.113045916 -0.16380307 0.10398055 -0.15858842
000300 7a 81 3d be 91 4b 1a bc 0c 21 5d 3e 7f 05 ca bd
       -0.18506423 -0.0094174305 0.21594638 -0.098643295
000310 ef 95 dd 3d 57 d3 a2 3d e0 b7 00 bd 9a b8 e6 3c
       0.10819613 0.07950466 -0.031425357 0.028164197
000320 e9 40 e0 bc 5a dd 02 3c ec 54 1b 3e 6a 78 93 bd
       -0.027374702 0.007987345 0.15169114 -0.072007015
000330 d9 f8 e1 3d d0 58 89 bd f9 8e b3 3d 73 69 e7 3b
       0.11033792 -0.06706393 0.08767504 0.007062131
000340 3d 38 f3 3b 6c 93 8f bd be e6 6a bd 8a 77 f9 ba
       0.0074224756 -0.0701054 -0.05734896 -0.0019032818
000350 57 32 b8 bc 84 58 f3 bd d0 aa 96 3b da 05 de bd
       -0.022484941 -0.118821174 0.004597999 -0.1084096
000360 78 3c 16 bd 5e ac cd bd b9 88 29 bd 08 ab c4 bc
       -0.03667876 -0.10042642 -0.041390155 -0.024007335
000370 c5 7b ba bd 60 f1 c7 3c 88 3c ce bc 24 7c 9a bb
       -0.091056384 0.024407089 -0.025175348 -0.0047145057
000380 a6 45 3f 3d e2 20 bf be 71 32 ab 3d 8c ed 98 bd
       0.04669728 -0.37329775 0.0835923 -0.074671835
000390 10 36 1f 3d 20 a8 e1 3e 14 db 8f bc 7f dd 8b bb
       0.038869917 0.44073582 -0.01756052 -0.0042683478
0003a0 a5 e0 04 be 8c 27 28 bc ab d7 4b 3c aa b7 04 3c
       -0.1297632 -0.010263335 0.012441556 0.00810043
0003b0 5f b6 e2 bc 18 19 b3 3d 02 d3 a7 3d 04 1c 2b bb
       -0.027674852 0.08745021 0.081945434 -0.0026109228
0003c0 88 98 09 3d 25 24 2e 3e 22 8c 0d be 4d 42 13 3e
       0.03359273 0.17005976 -0.13822988 0.1438076
0003d0 86 0b 63 be 9e 4a 07 be 38 45 5d 3c 13 52 54 bd
       -0.22172365 -0.13212058 0.013505273 -0.051836085
0003e0 2c 5e 0a 3e a0 89 35 3c 11 65 dc 3e 9e e8 36 3d
       0.13512486 0.011080176 0.43045858 0.044655435
0003f0 32 41 25 3e d2 da 8d bc d4 4b 87 bc 73 08 2e bd
       0.16138151 -0.017316256 -0.01651565 -0.042488527

actor.0.bias f4 [512]
000000 8c 3f 51 3e b3 95 d1 be de 38 0d bf 05 f0 aa bd
       0.20434397 -0.40934524 -0.551649 -0.08346561
000010 b2 90 d9 be 2e 81 8c be 9d 81 d6 be da b1 89 3e
       -0.42493206 -0.27442306 -0.41895762 0.26893502
000020 d9 33 1a 3e 41 a2 b3 be af 3d 99 be 09 d9 62 be
       0.15058841 -0.35084727 -0.29929873 -0.22153105
000030 a7 2c b3 3e 9d a2 92 3e 48 93 3d be 0d 43 d9 3e
       0.34995005 0.2863969 -0.18513215 0.42433968
000040 55 ab ce be 9d 4c 5f be ba 65 aa be 5e ff 7f 3e
       -0.4036509 -0.2180657 -0.33280736 0.24999759
000050 ac 85 2a 3e 33 36 da 3d d1 ca 5f 3e 33 16 48 be
       0.16652554 0.10654869 0.21854712 -0.19539718
000060 a0 45 12 3e c7 f2 bf be 15 90 44 3e 97 3b b8 3e
       0.14284372 -0.37489912 0.19195588 0.35982963
000070 6d 19 04 3e 51 90 73 bd af 34 f0 be df 94 03 bf
       0.12900324 -0.059463803 -0.46915194 -0.51399034
000080 c5 87 b0 be 5f a0 89 3e 4d d6 18 3e d3 e9 dd be
       -0.34478584 0.26880166 0.149255 -0.43342456
000090 59 f3 a2 3d c2 d6 ad be 55 72 be 3d f7 60 a2 bd
       0.07956571 -0.3395291 0.09299151 -0.07928651
0000a0 77 9d 32 3e f5 66 71 3e ed 78 58 3e bf 1a 40 3e
       0.1744288 0.23574431 0.2113988 0.18760203
0000b0 43 03 dd 3d 7c 90 8d be aa 41 5c bd 69 c2 2f be
       0.10791638 -0.27649295 -0.05377356 -0.17164005
0000c0 f5 a1 1b 3e 19 6b 7e be b7 4b cd bc 68 d8 d1 bd
       0.151985 -0.24845542 -0.025060518 -0.10246354
0000d0 56 3c d6 3e 2d 84 9c bd e6 b8 ab be a1 1d ca be
       0.41842908 -0.07642398 -0.33539504 -0.3947573
0000e0 28 40 24 bf 60 2b 90 be 31 d0 bf 3e ce ce bf be
       -0.64160395 -0.28158092 0.37463525 -0.37462467
0000f0 66 0c 86 be d1 7f 79 bd 05 41 ee be 44 00 aa be
       -0.26181334 -0.06091291 -0.4653398 -0.33203328
000100 5e 20 f4 be 1a 94 52 be 8c 0a c1 bc 9c fc 81 3c
       -0.47680944 -0.20564309 -0.0235646 0.015867524
000110 91 57 a1 be d7 0b a2 3e 10 33 c6 be bd d0 15 bf
       -0.3151212 0.31649658 -0.38710833 -0.58521634
000120 6e 20 ac 3d dc ee 75 be e1 c8 63 3e b7 92 3e 3e
       0.08404623 -0.24016899 0.22244598 0.18610655
000130 74 7e 4a be a2 38 72 3e a4 95 72 be 4f f9 89 be
       -0.197748 0.23654416 -0.23689896 -0.2694802
000140 6d be e2 3d f5 6a 35 be e4 c4 ff 3e 81 8b e2 be
       0.11071477 -0.17716582 0.49954903 -0.44247058
000150 60 05 27 be 4c 9a b1 3e 90 6e 8a be 4b 80 34 3e
       -0.16310644 0.34688032 -0.27037477 0.17627065
000160 e8 56 12 3d 4e 59 21 bf 27 7e 91 be 3c a0 db 3e
       0.03572741 -0.63026893 -0.2841656 0.42895687
000170 a5 f2 26 bf 5a 1d d7 be 22 9d 0b bf bb e0 0e 3e
       -0.65213996 -0.4201458 -0.5453664 0.13952915
000180 80 6e d7 3e 0b a0 57 bf 65 d5 7c be 30 7b b4 3e
       0.42076492 -0.8422858 -0.24690779 0.35250235
000190 de 8d 1b bf 07 56 87 be ad ac 41 be 61 ac d9 be
       -0.6076335 -0.2643282 -0.18913527 -0.42514327
0001a0 4d 10 c1 bd 15 55 0b bf 27 15 84 bd d9 32 3e 3e
       -0.09426937 -0.544267 -0.06449347 0.18574084
0001b0 80 cc ea bc 94 c8 e8 bc 2b 0b b4 3e 7b 29 50 be
       -0.028661966 -0.028415956 0.3516477 -0.20328324
0001c0 34 69 7f 3e 7d 96 6c 3c 4a 4e b5 be df 94 a7 bd
       0.24942476 0.014440176 -0.35411292 -0.08182692
0001d0 f9 91 03 3d a2 db 97 be 11 9c b8 3e 14 be 85 bd
       0.032121632 -0.29659754 0.3605657 -0.06530395
0001e0 d7 70 1e bf 21 46 17 be 67 cb cb 3c 5e 67 4e be
       -0.6189093 -0.14772846 0.024877263 -0.20156619
0001f0 85 13 3e be a3 75 67 be 67 41 aa 3e 27 ac 57 3e
       -0.18562134 -0.22603469 0.33253023 0.21061765
000200 1a ab 83 be 8b 71 5f 3e 80 69 e9 be 79 84 05 bf
       -0.25716478 0.21820657 -0.45588303 -0.5215526
000210 85 de 84 3e 90 bc 95 bd f8 de b0 be 06 d4 c6 3d
       0.2595102 -0.07311356 -0.34545112 0.09708409
000220 23 27 e0 bd 1b 24 4f be 6d e5 83 3e 47 24 37 be
       -0.10944965 -0.20228617 0.25760975 -0.17884932
000230 eb 21 c0 be 08 80 64 be 95 63 cd 3d 91 df dc 3d
       -0.37525877 -0.22314465 0.100287594 0.107848294
000240 ac 13 29 be 1b 5a f9 be d7 89 28 3e 3c de bb 3d
       -0.1651141 -0.48701558 0.16458832 0.09173247
000250 5b 09 d3 be e8 05 95 be 76 29 5e be aa 3e f0 be
       -0.41218075 -0.2910607 -0.21695504 -0.4692281
000260 85 d3 68 3d 03 49 1d be 3b bb 81 be 9f 32 c3 bd
       0.056842346 -0.15359883 -0.25338158 -0.095311396
000270 0c 33 14 3e c1 24 21 be c7 4f 96 be 8a 6a a9 3d
       0.14472598 -0.15736677 -0.2935774 0.08272274
000280 1c fa fe be 3c 41 a1 be 53 54 9c be 45 f3 38 be
       -0.49800193 -0.31495082 -0.30533084 -0.1806155
000290 2f bf 35 bd 17 96 f6 be cd e8 9f 3d bf 14 62 be
       -0.04437178 -0.48161384 0.07808075 -0.22078227
0002a0 db ce 46 3d 7c b8 19 3e d1 32 f3 bc 9f 0d c5 bd
       0.048537116 0.15011781 -0.029687317 -0.09621739
0002b0 01 14 2f 3e 88 93 1c 3e b2 32 21 3d 10 7d 4d 3e
       0.17097475 0.15290654 0.039354987 0.20067239
0002c0 4b 16 da 3c 3b 46 9c be cf 39 0d be ac 15 88 3d
       0.026621958 -0.30522332 -0.13791583 0.066447586
0002d0 a6 a5 d9 bd 00 36 89 3e 65 a3 92 be 01 f7 3b be
       -0.10627298 0.2679901 -0.28640285 -0.18355943
0002e0 f8 8b bb bc ef 83 9d bb 95 1f 06 3e d0 66 5d bf
       -0.02289389 -0.0048069875 0.13097985 -0.86485004
0002f0 15 d3 c1 be a8 b5 e5 be 96 f3 63 3e eb df b1 3d
       -0.37856355 -0.44865155 0.2226089 0.08685287
000300 2e c1 d8 be b8 ff 8e be 49 5b b7 be ec d3 ca be
       -0.42334884 -0.27929473 -0.35811833 -0.3961481
000310 45 38 03 3e 7e 2f d1 bc 5f 2a 19 3d fa 60 fd be
       0.12814434 -0.025535341 0.037393924 -0.4948805
000320 b4 4a 67 be 52 40 f7 bd ea ae a1 3d 37 ff b7 be
       -0.2258709 -0.12072815 0.0789469 -0.359369
000330 f5 54 ca bd bf 6d 02 3e ed ba f6 bd ed 42 14 be
       -0.098794855 0.12737177 -0.12047372 -0.14478655
000340 f6 45 3e 3e a9 7d 8a 3e 32 e2 03 bf f6 4e 15 be
       0.18581375 0.27048996 -0.5151702 -0.14580902
000350 a0 b9 12 3e de 08 16 3e dc 46 53 be d4 74 aa be
       0.14328623 0.1465182 -0.206325 -0.33292258
000360 4d e8 d5 be e0 d4 2c be a0 03 10 3e dd 4c c1 3d
       -0.41778794 -0.1687808 0.14063883 0.09438489
000370 30 d2 9d bd af 88 85 3d bc 1d e4 3d 49 f9 ce bd
       -0.07706106 0.06520211 0.11138484 -0.10106141
000380 1f 4b 01 bf 3c 61 28 be e8 71 95 3e 16 40 bb 3e
       -0.5050525 -0.16443342 0.29188466 0.3657233
000390 91 31 af bd 4f a5 15 bf 78 e4 4c bf b7 5f 8c 3d
       -0.08554376 -0.58455366 -0.80036116 0.06854194
0003a0 b8 94 4c 3e ed 3f af 3e 7d 7a b5 be ea 8c 2a bf
       0.19978607 0.3422846 -0.35445014 -0.6662127
0003b0 e3 7f 06 bf 18 52 cc be 29 30 15 be fa b2 1a 3e
       -0.5253889 -0.39906383 -0.14569153 0.15107337
0003c0 59 09 01 bd 66 4a bf be d4 34 ae bd 6a 18 a7 bd
       -0.031503055 -0.3736145 -0.0850617 -0.081589535
0003d0 ad 93 3a bc b1 c0 c4 be 17 3b 13 3e 6a e8 9d be
       -0.011387748 -0.38428262 0.1437801 -0.3084138
0003e0 3b 64 0e 3e 1a fc 2f 3e f7 c8 2c 3f 94 b1 10 3e
       0.13905422 0.17186013 0.6749415 0.1413024
0003f0 f8 9b 13 3e 27 70 e5 be e5 8e f7 be ef fe b6 3d
       0.14414966 -0.44812128 -0.48351207 0.089353435

actor.2.weight f4 [256, 512]
000000 9a 7e 61 be c5 3d 9f bd 31 11 ef 3d a9 53 d9 3c
       -0.22020951 -0.077754535 0.11673201 0.02652915
000010 55 d7 39 be 0f 86 fc bd 11 a5 ea bd ae e1 3d bd
       -0.18148549 -0.12330257 -0.11457265 -0.046357803
000020 b2 af 78 3d 0d 9a 13 bd 3b 2c 1b bb 62 0e c4 bc
       0.06071443 -0.036035586 -0.0023677486 -0.02393264
000030 48 9b fe bc eb 75 82 bd 0b 05 8f 3d 0b 81 05 bd
       -0.031079903 -0.06370147 0.06983384 -0.032593768
000040 48 43 bc bd 4c 31 40 3e 22 a9 1e 3e 16 dd fa bc
       -0.091925204 0.18768805 0.15494207 -0.030623
000050 75 fb ce bd db d6 b9 3c b5 5c 4f be ba c6 41 be
       -0.10106555 0.022685459 -0.20250209 -0.18923464
000060 2f 0b 9f bc 83 7a 53 3d 20 84 a5 bd 7f f3 65 3c
       -0.019414512 0.05163051 -0.080818415 0.014035105
000070 ba 89 b9 bd 60 12 c5 bd ff 24 6b 3c 3a d5 64 bc
       -0.090594724 -0.096226454 0.014352082 -0.013966853
000080 95 f7 93 bd 0c d6 b2 3d 61 3d 70 3c 58 5b 8b 3d
       -0.07224957 0.087322325 0.014663071 0.06804532
000090 4d a5 57 3d 98 90 b9 3c a2 ab 1e bd 51 6c 04 bd
       0.052647877 0.022651955 -0.0387379 -0.03232986
0000a0 63 7a 8e bd 74 29 3e bc 17 45 74 3c 33 1d 96 bc
       -0.06956937 -0.011606563 0.01490905 -0.01832447
0000b0 a7 3b f3 3d fd 3e af 3d c9 cb 09 be 46 0a 32 3e
       0.11876612 0.08556936 -0.13456644 0.17386732
0000c0 d4 e4 a2 3d 30 b0 fa 3d 00 04 8d bd de 42 42 3d
       0.07953802 0.12240636 -0.068855286 0.04742705
0000d0 bb 25 e8 bd 23 ed 91 3d 82 66 91 bd 60 7c ac 3d
       -0.113353215 0.07125308 -0.0709963 0.0842216
0000e0 fc 30 25 3e 61 ae 27 bc c9 7e 8c be ab 94 8b bd
       0.16131967 -0.010234446 -0.2744048 -0.068154655
0000f0 f5 37 4f 3e d7 93 b3 3d f1 27 91 3d 5e cf 9b bc
       0.2023619 0.087684326 0.07087696 -0.019019779
000100 ba 82 95 3b 7f e4 10 be ad 91 21 bc f7 30 b3 3d
       0.004562703 -0.14149664 -0.009861392 0.08749574
000110 0b bb 2f bc 0f 5d 55 be 02 f2 0d 3e 42 3a 5f be
       -0.010725747 -0.2083628 0.1386185 -0.21799567
000120 0a d9 39 3d 2f 45 3f 3d 49 ff a0 bd dc 70 ae bb
       0.045373 0.046696838 -0.07861192 -0.0053235125
000130 34 d2 33 bd e6 53 81 3c ff 97 c5 3d f5 03 d6 bc
       -0.043901637 0.015787076 0.096481316 -0.026124934
000140 9e 3d 60 3d 56 05 08 3d eb f6 ca bd ec 9e 98 3b
       0.054746263 0.033208214 -0.09910377 0.004657617
000150 74 4e 27 bd 81 74 36 bd ed e3 fd 3d e6 73 06 bc
       -0.040846303 -0.0445447 0.12396989 -0.008206343
000160 60 78 87 be 35 99 a8 bd 50 a8 87 ba 0d fc 63 bd
       -0.26459026 -0.08232347 -0.0010349844 -0.055660296
000170 53 9d 33 bd 26 3e e9 bc b9 4e 79 3e 4d e6 8a bd
       -0.043851208 -0.028472017 0.24346437 -0.06782208
000180 f5 7d a3 3d f8 7a 28 bd b9 db 4d be 83 66 ae 3d
       0.07983009 -0.041132897 -0.20103349 0.08515646
000190 f5 4c 7c bc 46 a4 8a be be 68 1e be bb e9 6a 3d
       -0.015399207 -0.27078456 -0.15469643 0.05735181
0001a0 f5 60 19 be dd 80 ae bd 46 ae 4a be bd 6e af be
       -0.14978392 -0.085206725 -0.19793043 -0.34264174
0001b0 e8 b3 de bd f6 1a 83 3d b7 6c b5 3d d2 79 b4 bd
       -0.10874158 0.06401627 0.08858626 -0.08812298
0001c0 40 81 21 bd 87 36 c0 bc 01 c2 4c 3d 84 2a c5 3c
       -0.039429903 -0.0234635 0.049989704 0.024068125
0001d0 c4 46 05 be 5c 2a ac bd 20 d1 8a bd 52 7e 87 bc
       -0.13015276 -0.08406517 -0.06778169 -0.016539726
0001e0 c4 bb aa bd 3b d3 93 3d d1 4c 52 3d 82 b3 4d be
       -0.08336595 0.072180234 0.05134279 -0.20088008
0001f0 af 52 e4 bd c9 98 ba bd 80 70 78 bd a9 c3 dd 3d
       -0.11148583 -0.09111173 -0.060654163 0.10828335
000200 9a 96 8f bd b6 ac a3 3d 74 1e 8d 3d c3 bd 30 bd
       -0.07011147 0.07991926 0.06890574 -0.04314972
000210 c3 63 88 bd 36 9c 04 3d 76 25 86 bd d3 bd 9c be
       -0.06659653 0.032375537 -0.06550114 -0.30613574
000220 ec af db bd 94 12 f7 bd ab 28 b3 bc 6a 31 c8 3d
       -0.10726914 -0.1206409 -0.021869978 0.0977505
000230 44 e5 71 3d 16 85 3f 3d 8d 75 07 bd 24 1e b1 bb
       0.059056535 0.04675778 -0.03307109 -0.0054052044
000240 8e 1d 10 be 7b 1d c9 3d 5a 23 71 bd 6e f6 1b 3e
       -0.14073774 0.09820076 -0.058871605 0.15230724
000250 3c c5 10 bd 97 2f 14 be 69 5d 08 3d 38 98 cb bd
       -0.035344347 -0.14471279 0.033292208 -0.09941143
000260 8a 18 87 be f8 2f f6 3d 8e f1 25 3d da b7 cb bd
       -0.2638591 0.12020868 0.040513568 -0.09947176
000270 62 3c ac bd 97 57 3f 3d 08 4e 06 3e cf 53 29 3e
       -0.084099546 0.04671439 0.13115704 0.16535877
000280 6c e0 ea 3d 80 8d 83 3d ec 84 4c be 49 7b 6b 3e
       0.11468586 0.06423473 -0.1997258 0.22996248
000290 68 0a c3 bd 99 00 0a 3d 68 72 a0 bc 88 ae 3a bd
       -0.09523469 0.033691976 -0.019585803 -0.045576602
0002a0 52 7e ac bd 4b 50 a0 bc 2b dc e0 bb d6 b3 51 bd
       -0.08422531 -0.019569537 -0.0068621836 -0.051196896
0002b0 ff 8b e4 bd a5 c9 37 be 7f 20 3f be fc 5c ac bd
       -0.11159515 -0.17948015 -0.1866474 -0.08416173
0002c0 d4 27 11 be 77 5e 11 3d 3c f1 94 be 83 2d d8 bb
       -0.1417535 0.03549048 -0.29090297 -0.0065972223
0002d0 70 88 ae 3d 5b e1 c4 bd 7c a5 84 bd d5 be 8e 3d
       0.08522117 -0.09613296 -0.06476876 0.06969992
0002e0 60 59 1b 3c de 01 05 be 97 7c 10 be be 58 b6 3c
       0.009481758 -0.12988994 -0.14110027 0.022259112
0002f0 05 d9 82 3d 74 8c f9 3c 79 66 8b bd 59 8f 21 3b
       0.063890494 0.030462481 -0.068066545 0.0024652092
000300 ab 44 20 be 13 c7 8f 3c 9a 1c 04 3c e8 90 d0 bd
       -0.15651195 0.01755098 0.00806346 -0.10183889
000310 c1 c6 97 bd 7c 36 6c bd db 46 4a 3c d5 13 f2 bd
       -0.07410956 -0.057669148 0.012345995 -0.11820189
000320 ae 1c 85 3c b0 a9 c1 3d a2 c3 0e bd fd ab a8 3c
       0.016249027 0.094561934 -0.03485454 0.020589823
000330 21 71 26 be 33 bc ac bd 0b 2c 4e be d8 5e 30 be
       -0.16254093 -0.08434334 -0.20133989 -0.1722368
000340 be 1b 09 3e cb 25 84 bd 19 3e e8 bd 68 ab 00 3c
       0.13389489 -0.06452521 -0.11339969 0.007853366
000350 5c 6a d1 bc 2a 23 6e be 09 99 3b 3d 81 23 e9 bd
       -0.025563411 -0.23255602 0.045800243 -0.11383725
000360 c1 f5 36 3d 81 e6 97 bd a5 f4 ce bd 20 be 30 3c
       0.044667963 -0.07417012 -0.10105256 0.010787517
000370 77 57 37 3d b6 f1 2b 3c 45 42 e3 bd f1 84 7a 3d
       0.044761147 0.01049464 -0.11096624 0.06116194
000380 a1 55 23 3d 38 ad d9 bc 05 46 16 be 10 a9 ae bd
       0.039876584 -0.026571855 -0.14675148 -0.0852834
000390 51 83 04 3d 00 a7 66 3d e9 ae 9d 3d 71 53 ca 3d
       0.032351796 0.056311607 0.07699377 0.098791964
0003a0 4b 34 0c be 25 93 e7 3c 7d 71 2f be 4e c0 c7 3c
       -0.13691823 0.028268406 -0.17133136 0.02438369
0003b0 4d 47 ba bd 7d 41 2a be d4 a3 c3 bd f9 cf f4 bd
       -0.09095631 -0.16626544 -0.09552732 -0.1195373
0003c0 fb 48 16 bc 70 6f ab 3d 10 54 97 bc 72 10 2d bd
       -0.009172673 0.083708644 -0.018472701 -0.04225201
0003d0 94 1e cf 3d 07 bb 3e be 89 d0 67 bd 18 3d 7c bd
       0.10113254 -0.18626033 -0.05659536 -0.0615817
0003e0 38 a4 68 3c a7 67 92 bc 2b 6a 48 bd 87 50 00 3e
       0.014199309 -0.01787169 -0.048929375 0.12530719
0003f0 da 0b 71 bd 35 cd e6 3c cb 99 84 bd ff 58 9d 3d
       -0.058849193 0.028174022 -0.06474646 0.0768299

actor.2.bias f4 [256]
000000 1d d2 29 be 6c 9b 29 be 8d 9b 51 3d 0c ca b7 be
       -0.16584058 -0.16563195 0.051173735 -0.35896337
000010 7a a7 86 be b0 d5 c8 bd 14 9d 70 be fb fc 70 be
       -0.2629965 -0.09806383 -0.2349742 -0.23534004
000020 90 23 29 be 69 df 65 3c ff 34 9f be 4e 5e a6 3d
       -0.16517472 0.014030316 -0.3109512 0.08123456
000030 53 a3 5b be 36 5d 45 be 1a 2a 92 be bf c5 44 be
       -0.21449022 -0.19273838 -0.28547746 -0.19216059
000040 bf 08 57 be bf b4 f8 3d 9c ee 54 be 2f dc 16 be
       -0.2099943 0.121438496 -0.20794147 -0.14732431
000050 46 a9 27 be 54 b6 0b be 70 46 3f bc 64 11 18 be
       -0.16373166 -0.13643771 -0.011674508 -0.14850384
000060 d1 4a 14 be 64 6d 04 be ca 0a 0d 3e 22 b8 85 bd
       -0.14481665 -0.12932354 0.13773647 -0.06529261
000070 5f 84 a7 be 36 60 01 be 36 03 b2 be a1 1d c2 bc
       -0.3271818 -0.12634358 -0.34768075 -0.023695769
000080 db e2 20 be d9 71 f7 bd 3a 48 89 bd 6e 47 9e bd
       -0.15711538 -0.120822616 -0.06703229 -0.07728468
000090 0f 18 e7 bd b8 cf bb be d7 19 a2 bd 6d 5e e9 39
       -0.11283886 -0.36681914 -0.07915085 0.00044511576
0000a0 85 a5 4f be ba d1 9d bd 5b 9d 83 be 1a 0a 11 be
       -0.20277984 -0.07706018 -0.2570599 -0.1416401
0000b0 31 fe 34 be 9b 93 25 be a5 d3 ea bd 55 0c e7 bc
       -0.17675091 -0.16169588 -0.11466149 -0.028204123
0000c0 45 60 05 be 24 a2 21 3e 80 8b 69 be 99 66 1b bd
       -0.13025005 0.15784508 -0.22807121 -0.03793964
0000d0 21 05 31 3d 45 3c 16 be 58 40 71 be 56 6e 02 be
       0.043217782 -0.14671429 -0.23559701 -0.12737402
0000e0 21 6d 56 be 0c 32 15 be af 10 71 be 69 05 f5 bd
       -0.20940067 -0.14569873 -0.2354152 -0.119639225
0000f0 1d 48 9f be 83 15 26 be 55 40 8b be 0c eb c3 bc
       -0.31109706 -0.16219144 -0.2719752 -0.02391579
000100 d8 b0 65 bd ba eb 81 be ea 3d bf 3c 28 46 63 be
       -0.056076854 -0.25375158 0.023344953 -0.22194731
000110 27 bf c7 be 72 7c d5 be c8 9b 02 be ea 9e 25 be
       -0.39013025 -0.41696507 -0.12754738 -0.16173902
000120 c8 3a 14 be ae 76 46 be 13 32 7f be 78 dd 35 be
       -0.14475548 -0.1938121 -0.24921446 -0.17760265
000130 a9 0c ee bd 44 25 1b be b2 ca 82 be 53 6e b8 bd
       -0.116235085 -0.15150934 -0.2554527 -0.09005418
000140 44 2d 4f be 89 fc cb bd 8a 07 37 3d 29 2b b4 bc
       -0.20232111 -0.09960277 0.044684924 -0.021993237
000150 9f 31 d6 bd f5 1d 6b be 98 0d 6f bd 54 e9 80 be
       -0.10458683 -0.22960646 -0.058362573 -0.25178015
000160 e1 0f 5c be 68 96 05 bd e2 ab 97 bd f2 b1 de bd
       -0.21490432 -0.03261414 -0.07405831 -0.10873784
000170 0d a7 ee bd eb 57 73 be a7 35 f5 ba 27 4a 5c be
       -0.11652956 -0.23764007 -0.0018708006 -0.21512662
000180 db 0c 80 be 9c 7b a4 be fa 91 59 be 20 a5 e9 bd
       -0.25009808 -0.32125556 -0.21247092 -0.11408448
000190 86 e1 eb bd b6 65 8f bd 40 40 48 be 1a e3 c7 bc
       -0.115176246 -0.07001822 -0.1955576 -0.024400283
0001a0 d4 11 89 3c 4c 92 89 be db f0 90 be d9 77 16 be
       0.016732134 -0.26869428 -0.28308758 -0.14694156
0001b0 ca ec cb bc d5 3e 31 be 1f 93 6b be 93 68 da bc
       -0.024893183 -0.17309125 -0.23005341 -0.026661193
0001c0 9a 27 cd 3c f3 f6 16 be 89 e2 f6 bd a3 61 82 be
       0.025043298 -0.14742641 -0.12054927 -0.25465116
0001d0 70 73 65 be e3 f9 e1 3d f2 b4 1e bd 86 6d 8a be
       -0.22407317 0.1103399 -0.03874678 -0.27036685
0001e0 f1 ed 91 3d 12 00 8a bd 00 a3 ff bd 5b dd ab bd
       0.07125462 -0.06738295 -0.12482262 -0.083918296
0001f0 65 1e 08 be 20 ad c6 be 32 92 f2 bd c7 0f 15 be
       -0.13292845 -0.3880396 -0.11844291 -0.145568
000200 8c f7 9c be 45 cf 2d bd 80 8d 51 bd b0 cc 00 be
       -0.30657613 -0.042433996 -0.051160336 -0.12578082
000210 d9 65 9d bc 9b 71 66 3d 3d af fc bb c7 8f 59 bd
       -0.019213604 0.056260686 -0.0077113197 -0.053115632
000220 59 38 82 be 8a 0a 28 be b8 eb 3d be 62 d0 c4 bd
       -0.25433615 -0.1641027 -0.18546951 -0.09610058
000230 8f 47 8d bd a5 7c 6d be a6 e7 0f 3b 76 a8 b9 bd
       -0.06898414 -0.2319208 0.0021958142 -0.090653345
000240 40 70 b4 bc b3 a7 cc 3d 7c 49 ad bb 86 dd b0 bd
       -0.022026181 0.099929236 -0.005288301 -0.08636002
000250 67 14 6e be 11 b4 df bd db d5 95 3d 22 ab a0 bd
       -0.2324997 -0.10923017 0.0731618 -0.07845141
000260 51 b3 53 be 4a dd d4 bd 55 25 14 be be 3c 8b 3d
       -0.20673873 -0.1039377 -0.14467366 0.06798695
000270 71 ca bd be 68 1d 83 bd 0c e9 9c bd d8 f1 a0 be
       -0.37068513 -0.06402093 -0.07661638 -0.31434512
000280 5b 3b 19 be 54 7e b9 bd f1 ff 48 bd 5c b7 b1 bd
       -0.14964049 -0.09057298 -0.04907221 -0.08677551
000290 09 f5 18 be e7 3f ff bd e0 bb f6 bc 3c e7 24 3e
       -0.14937223 -0.1246336 -0.030118883 0.16103834
0002a0 2e 37 5f be 5e 70 90 bd 5d a7 68 be d2 b3 2e be
       -0.21798393 -0.07052682 -0.22720094 -0.17060784
0002b0 28 ed c6 bd a9 95 a4 be fd 28 4f be 89 c7 2b be
       -0.09713203 -0.32145432 -0.2023048 -0.16775335
0002c0 21 4c dc be ed 00 c5 bd fd dc 40 be f6 ff 1a bd
       -0.43026832 -0.09619317 -0.188343 -0.03784176
0002d0 9c cf 9b bd 23 e6 76 bc 38 46 b2 be c2 eb b0 be
       -0.07607958 -0.015069517 -0.34819198 -0.3455487
0002e0 2a b9 3f be 2a 6d 77 be e6 98 3e be 11 ef ff bc
       -0.18722978 -0.24162737 -0.18613014 -0.031241925
0002f0 f2 c9 af 3b 73 c8 25 be 64 c6 01 3d 57 ac b1 be
       0.00536465 -0.16189747 0.03168334 -0.34701797
000300 c6 95 66 be e8 05 f3 bc b2 ad 85 be bd 1f 18 be
       -0.22518072 -0.029665902 -0.26109082 -0.14855857
000310 2c 7d 4e be 46 3c 05 be 72 06 45 bd 23 7a 8d bd
       -0.20164937 -0.13011274 -0.04810185 -0.06908061
000320 91 03 20 be 8f f1 27 3e 4c 0b c8 bc 43 ee d4 bd
       -0.1562636 0.16400741 -0.02441945 -0.10397007
000330 93 7f 9c bc be 0d ef bd bf 85 ab be 72 ab d3 bd
       -0.0191038 -0.11672543 -0.33500478 -0.10335435
000340 b2 b2 7c bd 4b 58 3f be bd 16 12 bd ef 71 7e be
       -0.061693855 -0.18686025 -0.035666216 -0.2484815
000350 2a 68 85 bc 29 65 df 3d 65 98 35 bd 24 8b 3e 3b
       -0.01628502 0.10907967 -0.044334788 0.0029074633
000360 2b 9a 11 3e 55 d5 85 be fb f9 4b be 9c ae 97 3c
       0.14218967 -0.26139322 -0.19919579 0.018515877
000370 97 32 da 3c 58 8e 23 be 3b dc 3f be 81 02 3e be
       0.026635451 -0.15972269 -0.18736355 -0.18555643
000380 13 15 54 bd 2f a4 33 bd 9a 3e ec b9 72 80 07 be
       -0.05177791 -0.04385775 -0.0004506007 -0.13232592
000390 0f 3c 87 be 14 d4 18 be 43 d9 2c bd 1f 44 ce bd
       -0.2641301 -0.14924651 -0.042199384 -0.10071587
0003a0 8e 8d 1a be bd 01 a0 3c ea c3 18 be 79 18 df bd
       -0.15093061 0.019532079 -0.14918485 -0.1089334
0003b0 59 48 b1 bd ff ed 31 be 9c 03 c0 3d b3 b4 31 be
       -0.08656377 -0.17375945 0.093756884 -0.17354088
0003c0 5a 38 46 be 1d 15 18 be 6d 2a 66 be fa 21 98 be
       -0.19357434 -0.14851804 -0.22477122 -0.29713422
0003d0 3e 4c 63 bd 93 a2 f4 3a 9d 28 8a 3d e1 ad eb bd
       -0.055492632 0.0018664174 0.067460276 -0.11507774
0003e0 b7 3f 71 bd 35 e0 0c be e4 86 4b be 16 33 c3 bd
       -0.058898654 -0.13757403 -0.19875675 -0.09531228
0003f0 87 c5 cc bc ba 85 4e be 78 7b 9c be 18 f9 2f be
       -0.024996532 -0.201682 -0.3056295 -0.17184865

actor.4.weight f4 [128, 256]
000000 35 49 00 3d 2b 64 59 bd 63 47 7a 3d a7 39 8b 3d
       0.031319816 -0.053074043 0.061103236 0.06798106
000010 b2 35 85 3d 48 98 d1 3d 3c 2b e8 3c 9b ad 15 bc
       0.06504382 0.102341235 0.028340928 -0.009135629
000020 30 97 96 3d 22 f6 f9 3b b7 97 91 3e 64 22 ba 3b
       0.073530555 0.0076282183 0.28436062 0.005680369
000030 56 83 ea 3c f2 a2 59 bc be 62 6e 3d 7b 8e 0d be
       0.028627079 -0.013283478 0.058199637 -0.13823883
000040 71 27 44 3d de 83 ac bb 94 9e c1 3c d1 7e 05 3e
       0.047889177 -0.005264743 0.023635186 0.13036658
000050 0c 88 0f bd 55 59 40 bc 85 0f e6 3d 4b 56 30 3d
       -0.035041854 -0.011740048 0.11233429 0.043051045
000060 82 1d 21 bc 95 12 2c bd cf 19 67 3d c6 0f 8d bb
       -0.009833695 -0.04200991 0.056421097 -0.004304859
000070 ed 78 dd 3c 17 a8 7a 3d 23 6c 6e 3e 6e f2 54 bd
       0.027035201 0.06119546 0.23283438 -0.05198901
000080 14 61 0c 3d f0 e3 02 bc f1 6a 18 be af ab e3 3c
       0.03427227 -0.007988915 -0.14884545 0.027791826
000090 e9 99 01 be 51 fd 1f 3d 31 a7 a4 bc 7a 41 fe 3a
       -0.12656368 0.03905994 -0.020099254 0.0019398176
0000a0 b4 e0 5a bc 4b 68 19 3d fc 9a b3 bd 6c 69 9d 3a
       -0.013359237 0.037452977 -0.08769795 0.0012009568
0000b0 61 10 58 3d 37 74 8b bd 25 53 6b 3d c6 09 0c 3e
       0.052749995 -0.068092756 0.05745234 0.13675603
0000c0 73 a9 6b 3d 39 bd c5 bb 83 22 8f 3d b3 b8 d8 bd
       0.057534646 -0.00603452 0.069890045 -0.105821036
0000d0 e1 86 d0 bd 1a cb d7 ba 3f 75 44 bc 1a 70 67 3c
       -0.10181976 -0.0016463727 -0.011990844 0.014125848
0000e0 dd 20 f6 3d ed 59 b2 3c 4c 03 ed bd a6 dd 1b 3e
       0.12017987 0.021771396 -0.115728945 0.15221271
0000f0 2d cc de 3c 20 a2 a9 3d 87 11 44 3d c5 ae c4 bd
       0.027196968 0.08282876 0.047868278 -0.09603647
000100 4b 7c bb bc 80 41 b0 ba 8d db cd bc 55 a1 a5 bc
       -0.022886416 -0.0013447255 -0.025129104 -0.02021853
000110 15 b6 95 bd e8 12 41 3d 34 2e a9 3d 02 fe 43 3d
       -0.0731012 0.04713717 0.08260766 0.047849663
000120 16 33 9a bd f0 bd 94 3d 6e e2 1c bd 8c 67 ee bd
       -0.07529275 0.0726279 -0.038301878 -0.11640844
000130 bb bd 92 3b 11 6d 9f 3d 32 d3 b3 bb d4 01 35 be
       0.004478184 0.07784475 -0.005487823 -0.17676479
000140 11 47 af 3b 44 b7 c4 3d b1 6d 45 bd 4b 4e 80 3d
       0.005349048 0.09605268 -0.048200313 0.06264933
000150 46 63 41 3e 3d 35 38 3c 3e b4 5c 3d ec a6 88 3d
       0.18885526 0.011243162 0.05388283 0.06672463
000160 98 76 af 3d db 65 0e bd 36 58 29 3d 91 3c 32 3e
       0.08567542 -0.034765106 0.04134389 0.17405917
000170 c0 d4 96 bd d5 f2 ca bd 69 e6 54 bd 9b 0b cc 3d
       -0.073647976 -0.09909598 -0.05197755 0.09963151
000180 09 1f c3 3d 2e ac af bb d3 8f 75 b9 7f fa f3 bd
       0.09527404 -0.0053611016 -0.000234186 -0.11913013
000190 4c 0e d4 bd 6b 21 6c 3d d5 24 58 bc d4 a7 b6 3d
       -0.103542894 0.057649057 -0.013192375 0.089187294
0001a0 83 e2 ba bc 32 af 23 3e 69 b5 62 3d d9 c9 16 bd
       -0.022813087 0.159848 0.055348787 -0.03681359
0001b0 ad b4 b3 bd 5d 47 4c bd d6 12 df 3c e0 68 69 3c
       -0.087746955 -0.049872745 0.027230661 0.014246196
0001c0 c7 f4 11 be 04 b3 22 bd 73 74 e0 bd 4e 07 28 bd
       -0.14253531 -0.039721504 -0.10959711 -0.04102259
0001d0 ea 17 6c 3d 93 f7 d9 bd 31 b1 d1 3d bf ad 53 bd
       0.057639994 -0.10642924 0.10238875 -0.05167937
0001e0 b3 96 78 bd 54 24 18 3d e3 12 ca 3d ba 75 85 bc
       -0.060690593 0.03714402 0.098668836 -0.016291488
0001f0 f8 c8 b5 3d 8a 9a fe bd 8b 7f 71 bd 8d 86 35 bc
       0.08876222 -0.1243182 -0.058959525 -0.011079443
000200 88 44 ca bd 4a 21 eb 3d ae 59 da bd a6 4b eb 3b
       -0.098763525 0.11480959 -0.10661636 0.007180649
000210 2f ed bd bd 9f 17 08 bd ad c6 40 3e 51 73 ba bd
       -0.09273755 -0.03322565 0.18825789 -0.09104026
000220 d5 26 16 3e c0 01 56 bb 0f f2 92 3d c8 05 57 bd
       0.1466325 -0.0032654852 0.07175075 -0.052495748
000230 b9 fd f6 ba 14 54 14 3d a0 fb f7 bd 61 76 90 3d
       -0.0018843926 0.036212996 -0.121085405 0.07053829
000240 67 f2 04 bc 8a 0e 15 3d 12 ef fb 3c 9a ad da ba
       -0.008114434 0.03639082 0.030753646 -0.0016683817
000250 ec 66 ce 3c 07 f2 85 bd 4c 3b 7e 3d c1 f5 09 3c
       0.025195561 -0.06540304 0.06206827 0.008420409
000260 d5 08 86 3c bf 09 64 bd eb a2 10 bd 64 a7 49 bd
       0.016361633 -0.055673357 -0.03531162 -0.0492319
000270 6b c8 8c 3d 71 06 ac bd 91 92 20 bc 8e 49 cf bd
       0.06874164 -0.08399666 -0.009800569 -0.10121451
000280 4f 4d d1 3c bf a5 38 3d aa b5 7e 3d 51 fb 37 3e
       0.025549559 0.045079943 0.062184967 0.17966963
000290 f9 b8 1f be 25 e8 7a bd e7 02 b2 3d 0b d2 4d 3d
       -0.15597905 -0.061256547 0.0869196 0.05024914
0002a0 ef a2 57 3d 8d 45 d3 bc b8 c6 7f bc 3f 6b 7f 3d
       0.05264562 -0.02579 -0.015611343 0.062358137
0002b0 3d 2a 1a 3d bb 0d 93 3d 12 3a 06 bd f6 e5 6e bd
       0.037637938 0.07180353 -0.032770224 -0.058324777
0002c0 dd 2f e0 3d b9 68 e1 bd 46 09 03 3d e3 11 57 3e
       0.10946629 -0.110063024 0.031991266 0.21002917
0002d0 b9 df e4 bd 3c 9c 89 bc 4d 19 42 3e 97 c9 2e 3e
       -0.11175484 -0.016798131 0.18954964 0.17069088
0002e0 4b de 19 be 70 4a a8 ba c5 4e 60 3d e9 9e ba bc
       -0.15026204 -0.0012839567 0.05476262 -0.022780852
0002f0 8c 44 90 bd 57 b7 7c 3b 98 10 42 bd 7b 31 57 3e
       -0.07044324 0.0038561428 -0.047379106 0.21014969
000300 ed 00 41 bd 23 70 3b 3d 2e 8d 27 3e 70 9f 44 be
       -0.047120024 0.04576124 0.1636245 -0.19201446
000310 f6 f5 c5 bd c8 f1 17 3e 66 0e a5 bc e6 75 a9 3d
       -0.09666054 0.14838326 -0.020148467 0.082744405
000320 fb d8 15 3c dd 02 b8 3d 2c f2 9e bc c5 58 6e 3d
       0.00914597 0.08984921 -0.019402586 0.058190126
000330 53 42 e3 bd 20 cb c8 bd 7a 79 13 3e c7 e4 90 3d
       -0.11096635 -0.09804368 0.14401808 0.07074886
000340 33 46 57 3b 6e 8a 97 3c 29 af d7 3d 3c 5f d9 39
       0.0032848238 0.018498626 0.10531456 0.0004146042
000350 55 e0 c7 3d f2 42 65 bc ec 3f db 3d 2e b9 55 b7
       0.09759585 -0.013993012 0.107055515 -1.2738905e-05
000360 f7 19 99 bc f1 2f ef 3c c2 a3 57 bd ce c9 d9 bd
       -0.018689139 0.029197665 -0.052646406 -0.10634194
000370 3b d0 ab be 1f 90 93 3d 99 7d 85 3d 2d 1c 36 bd
       -0.33557305 0.07205223 0.065180965 -0.044460464
000380 f7 a4 a5 3d 5d fc 7f bd 1b fc eb bd ad f4 5f bb
       0.08088105 -0.06249653 -0.11522695 -0.0034172938
000390 77 10 47 bd 2c 70 0f 3d c6 ed b7 bc 6e 20 1c 3d
       -0.048599686 0.035019085 -0.022452246 0.038116865
0003a0 72 b8 54 3d 41 3d 84 3d 26 29 06 3e 95 42 e7 3d
       0.051933713 0.06456996 0.13101634 0.112919964
0003b0 59 ac 6e bd bf dd b4 bd 41 cd 02 3d cf ed f4 3c
       -0.058269832 -0.08831357 0.031934027 0.029898552
0003c0 b5 e3 48 bc 53 2b a4 3d ec f4 de 3c b8 b0 9a 3d
       -0.012261321 0.08016076 0.027216397 0.07553238
0003d0 1a 94 4e 3d cd 90 ba 3d 89 eb f4 bd cd 39 e7 3b
       0.05043421 0.0910965 -0.11958987 0.007056451
0003e0 0e c4 f9 3c cc 3c 5c bc dc 18 9b bd b9 65 ff bc
       0.030488994 -0.0134422295 -0.07573101 -0.031176435
0003f0 12 84 44 bd 3f bb b2 3d 0b 7a 09 3e 76 4a bd 3d
       -0.047977515 0.087271206 0.13425462 0.09242718

actor.4.bias f4 [128]
000000 ad a8 c9 bd 8b bd 75 3c 3b f4 34 bd c5 78 ba 3c
       -0.098466255 0.014998804 -0.04417823 0.022762666
000010 e4 14 73 bd 40 bd 68 bd 38 44 69 bd 92 e7 0a be
       -0.059346095 -0.056821108 -0.056949824 -0.135649
000020 e5 a9 49 bd bb c5 2e bd b9 a2 8c bd 67 b2 3c be
       -0.04923429 -0.04266904 -0.068669744 -0.1842743
000030 c8 85 93 3c c6 99 07 be 3e d7 a9 bd a9 a5 fd bd
       0.018008128 -0.13242254 -0.08293007 -0.12385113
000040 f3 cc ab bc 4a ac a4 bc 68 80 0e be 30 a8 fa bd
       -0.02097175 -0.020101685 -0.1391617 -0.122391105
000050 21 13 60 bc d7 a7 18 3c 50 c5 0d bd 6e b4 15 be
       -0.013676436 0.00931736 -0.034612 -0.1461961
000060 d0 a0 08 be 75 08 40 bb 28 f7 7d be 4a fd 4a bd
       -0.13342595 -0.0029301916 -0.24801314 -0.04955796
000070 6e 17 fd bc 38 30 cf bc 52 42 bf bd 0a ed 07 be
       -0.030894961 -0.025291547 -0.093388215 -0.13274017
000080 6d 21 0c be 1d 8a 2c be 83 f5 ee bd 3f 1f 55 bd
       -0.13684626 -0.16849561 -0.116679214 -0.05203175
000090 26 66 37 bd f5 55 c9 bd 6a 4c 12 ba c4 a0 d7 bd
       -0.04477515 -0.09830848 -0.00055808446 -0.105287105
0000a0 26 80 77 bd 4f 53 8c bc 9f cc 56 bd 6f 14 32 be
       -0.060424946 -0.017129568 -0.052441236 -0.17390607
0000b0 cd 5c 38 be 59 aa 9b 3d 41 25 fb bd 02 53 33 be
       -0.1800415 0.076008506 -0.12262965 -0.17512134
0000c0 c1 6a 12 be e1 fa e3 bb 9d da 55 bd ad b8 8e 3d
       -0.14298536 -0.0069573973 -0.05221044 0.06968818
0000d0 ba bc fb bd cf a6 64 bd c2 2a cf bd 92 19 bd bd
       -0.12291856 -0.055823144 -0.10115577 -0.09233393
0000e0 33 af 00 be da 85 d6 b9 d8 da 74 bd d2 29 02 be
       -0.12566833 -0.00040916988 -0.05977902 -0.12711266
0000f0 76 f2 77 bd dc 2f 11 be bb 33 e3 bd 3d 98 ee bb
       -0.060533963 -0.14178413 -0.11093851 -0.007281332
000100 da 26 66 3d 39 39 1a bd 2b 34 fd bd 3c d8 1f be
       0.056189395 -0.037652228 -0.12363466 -0.1560983
000110 3e 21 0f be da ee 5a be ca 4a 27 be fb 48 ec 3b
       -0.13977525 -0.21380177 -0.16337124 0.0072108484
000120 3e 4e d4 bd 82 31 24 be 91 db 4d 3c ee e4 0b bd
       -0.10366486 -0.1603451 0.012564556 -0.03415387
000130 e2 4c bb bc 53 bb 8e bd 78 98 27 be 77 d9 18 be
       -0.022863809 -0.06969323 -0.16366756 -0.14926706
000140 b2 b0 21 bd c6 fa 0c be c2 dd 0a be 41 00 36 bc
       -0.03947515 -0.13767537 -0.13561156 -0.011108459
000150 ec de 8b bd 32 92 2c be ae ce e7 3c 87 59 67 3c
       -0.06829628 -0.16852644 0.028296795 0.014120466
000160 1e 31 dc bc 8e a5 d3 bd d3 93 0d be 4a f3 a1 bd
       -0.02687889 -0.103343114 -0.13825922 -0.07907732
000170 81 05 8f bd 47 40 0a be c0 1d 9f bd 7b cd 8a bd
       -0.06983472 -0.13501082 -0.07769346 -0.067774735
000180 47 38 63 bd 63 bd 25 bd fb a5 01 be af 48 7a bd
       -0.055473592 -0.040463816 -0.12660973 -0.061104473
000190 5b bc c1 bd 95 b2 ca bd 77 b8 9f bc 4d 43 19 be
       -0.09459754 -0.09897343 -0.01949714 -0.1496708
0001a0 8f d9 80 bd 02 46 dc bc c4 43 f5 3c c1 9a 18 b9
       -0.06291496 -0.026888851 0.02993954 -0.000145535
0001b0 df 1a f9 3b 3c 68 2c be 8b 6c 0a 3b 42 47 18 be
       0.0076020802 -0.16836637 0.0021121826 -0.14870933
0001c0 ec 86 55 bd dd ba ca 3d 73 c5 1e be 14 f9 bd bd
       -0.052130625 0.098989226 -0.15505008 -0.092760235
0001d0 da 8e f5 bc ed 98 1f bc de 0c b0 3c 54 0c d6 be
       -0.029975343 -0.00974105 0.02149051 -0.4180628
0001e0 e8 3f c6 bd bb ff e1 bd 38 88 a1 be 32 d5 92 bd
       -0.09680158 -0.11035105 -0.3154924 -0.0716957
0001f0 2d b3 03 bd cb 72 82 bd b2 69 45 3c 0b f9 65 bd
       -0.032153297 -0.06369551 0.0120491255 -0.05614571

actor.6.weight f4 [22, 128]
000000 66 d3 b5 bb cd 0d bd 3b 10 6d 28 bd df 7c 5e bd
       -0.0055488823 0.0057694674 -0.041119635 -0.054318305
000010 e6 d6 fd 3c 7a 93 86 bc c4 f4 85 3c 47 ab 43 bd
       0.03098626 -0.016427744 0.016352065 -0.047770765
000020 00 2f e2 3c d2 ae d0 bb e3 b0 b3 3c 35 5a f4 ba
       0.027610302 -0.0063684965 0.021934932 -0.0018642606
000030 cb d3 81 3c 68 7a 44 3b 83 a9 86 3c 3f e8 90 bc
       0.015848061 0.0029980186 0.016438251 -0.017688869
000040 e7 5e c2 bb d1 de c6 bb 60 fd 36 bc 4a 70 6f bb
       -0.0059317234 -0.0060690423 -0.011168808 -0.0036535435
000050 fc 8e 02 bc 8b 66 dd bb 1c 74 c2 bb 24 40 6c 3d
       -0.00796866 -0.006756609 -0.0059342515 0.057678357
000060 e3 1a a6 bc f2 0c 0e bc f0 cf f9 3b 66 14 c9 bc
       -0.020276492 -0.008670079 0.007623665 -0.02454586
000070 30 d0 06 bc dd a8 a1 bc 66 6b a0 bc ba 6a 6c 3b
       -0.008228347 -0.01973384 -0.019582462 0.0036074356
000080 f3 82 ae bc b2 4a a5 bb d0 d8 8b bc 1c 10 28 3d
       -0.021302676 -0.0050443048 -0.017071158 0.041030988
000090 fb 92 cd 3b a4 ab c3 bc bc d1 99 3c ef 68 3b bb
       0.006273625 -0.023885556 0.018776767 -0.002859648
0000a0 66 91 c1 ba d5 1e 36 3a b8 3c 0f 3d 92 8d 48 39
       -0.0014768064 0.00069473434 0.034970015 0.00019126225
0000b0 67 17 52 3c fc 15 9f bc a9 94 41 bc ed 12 83 bc
       0.012822962 -0.019419663 -0.0118152285 -0.016000235
0000c0 23 fd 48 bc 17 c1 ac bb b6 21 ea bb 1c a3 71 bc
       -0.012267384 -0.0052720415 -0.007145132 -0.014748361
0000d0 62 ae e0 3c 49 06 9b 3b 54 e9 c2 bc 3b 5a f6 bc
       0.027426902 0.004730974 -0.0237929 -0.030072322
0000e0 98 6c 48 3b 38 25 8b bb 62 dd 29 bc a8 4b dd 3a
       0.0030582305 -0.00424638 -0.010367723 0.0016883509
0000f0 5a 69 13 3c 39 60 64 3c 42 6b af bc 9f 2c c8 bb
       0.008997286 0.013938957 -0.02141345 -0.006108835
000100 2e 66 31 bc b8 ba ae bb 51 48 9e 3c 84 87 7b bb
       -0.010827584 -0.005332317 0.019321593 -0.0038380334
000110 24 d2 fd ba af fd a3 bc 82 68 d5 bc 00 fe ac 3c
       -0.0019364995 -0.020018427 -0.02605081 0.02111721
000120 de 21 1e 3c 15 c1 1e bc a1 15 4d 3b 37 0e 3f 3c
       0.009651629 -0.009689589 0.003129341 0.011661104
000130 fb ef ed 3c 69 3c c0 bb 42 c8 aa 3b 82 65 49 3c
       0.029045096 -0.0058665765 0.005211861 0.012292268
000140 d4 b5 a8 bc 94 dd 26 3c f2 97 6b 3c c4 18 e8 bb
       -0.020594515 0.010184664 0.014379488 -0.0070830304
000150 27 27 d5 3c 43 14 70 3c 20 3b c2 3c 06 a9 0c ba
       0.026019646 0.014653268 0.023709834 -0.00053657626
000160 73 63 15 3a 9b 85 5a 3c e0 b3 c8 3c 84 74 76 bb
       0.0005698718 0.013337518 0.024499834 -0.003760607
000170 38 27 3d 3b 3a 3b 13 bc 88 e7 1b bb ac e6 f2 3c
       0.0028862488 -0.008986289 -0.0023789126 0.029651009
000180 9f 0d 59 bc 1e 2f 5d 3b f3 2f 2c 3c 88 79 73 3d
       -0.013247876 0.0033750008 0.010509479 0.059442073
000190 e5 cc df bc 89 00 9d 3c 81 04 17 3c c9 74 75 3c
       -0.027319381 0.019165294 0.009217382 0.014981457
0001a0 eb 4a dd bb a1 79 30 ba 7c 58 42 3c 90 3c 1a 3d
       -0.0067533157 -0.00067319913 0.011861917 0.037655413
0001b0 ed 9f 2f 3c 0b 83 61 bc 28 de 06 3c d5 00 96 3c
       0.010719282 -0.013764153 0.008231677 0.018310944
0001c0 65 fe a4 3c be 26 56 3c 5e cc 16 3b c4 e6 3c 3b
       0.020140836 0.01307076 0.0023009996 0.002882407
0001d0 9a ec 3e bc 6d 32 b5 39 8e fb 7f 3c 5e 09 52 bd
       -0.01165309 0.0003456058 0.01562394 -0.051278464
0001e0 1b b3 65 3c 75 7c 8d bc d9 46 97 bc df d9 47 3b
       0.014019753 -0.01727126 -0.0184664 0.0030494852
0001f0 82 08 de bc 6a c2 ae 3c b2 1b fa 3b 5f 6a e0 bc
       -0.027103666 0.021332938 0.007632696 -0.027394472
000200 64 f2 a6 3b e6 2e 0c ba 1e 8b 09 bd ee d8 f2 bc
       0.005094813 -0.00053475646 -0.033579938 -0.029644456
000210 ac f0 b1 bb 17 13 5b 3c 5c 42 be bb 5d 77 db 3c
       -0.0054303017 0.013371251 -0.0058062505 0.026790315
000220 37 ec 9f 3c bf 12 0a 3c 72 05 cc bc 8c 54 99 bc
       0.019521816 0.008427321 -0.02490494 -0.018717073
000230 28 27 b7 bc 04 e0 66 bc 00 05 28 3a 05 71 08 bc
       -0.022357538 -0.014091495 0.00064094365 -0.008327727
000240 4d b8 05 bc 86 32 c1 bb 5f 40 fb bc aa a5 db bb
       -0.0081616165 -0.0058959154 -0.030670343 -0.0067030983
000250 85 97 37 bc 44 ed b3 3c b0 f8 59 3c 59 66 a8 bb
       -0.011205559 0.021963723 0.013303921 -0.005139154
000260 b4 73 9a bb 58 60 cf bc 4e a3 45 3c e9 fe a9 3c
       -0.0047135 -0.025314495 0.012062861 0.020751433
000270 de 88 fc 3a e8 f5 de bc d8 32 0e 3c ab d9 54 bd
       0.0019266864 -0.027216867 0.008679114 -0.051965397
000280 d8 b9 3a 3b 84 7d ea bb b1 0f e5 ba 31 d2 33 bd
       0.002849212 -0.007156076 -0.001747599 -0.043901626
000290 97 07 ee ba e7 b8 c7 bb 46 6e 41 bc 61 e8 37 bc
       -0.0018160221 -0.00609504 -0.011806076 -0.011224837
0002a0 8c 66 71 bb 3c 1c 89 3c 90 b4 93 3c 7d 4d c3 3b
       -0.0036834804 0.016737096 0.018030435 0.005960165
0002b0 db 5f df 3b a8 31 0f 3c 71 93 1d bc f3 3f 76 bc
       0.006816847 0.008739866 -0.009617672 -0.015029895
0002c0 e6 d5 3c 3c 51 a8 af 3c 50 ac d7 bb 66 81 8c 3d
       0.011525607 0.021442564 -0.0065818205 0.06860618
0002d0 73 13 8b 3c c5 ee ad bc 38 7b 7c 3c 56 d9 68 3c
       0.016977048 -0.021232018 0.015410237 0.014211973
0002e0 b6 e2 a0 3c 9c 26 15 3d 30 18 f1 ba e3 25 ab 3b
       0.019639354 0.036413774 -0.0018394049 0.0052230223
0002f0 74 f1 fc 3a 76 72 a6 3b 08 fb 99 3c 05 1e 05 bc
       0.0019298033 0.005079563 0.018796459 -0.008124833
000300 65 16 7e bc 3e eb 66 3b 6d bb 06 bc 95 53 b2 3a
       -0.015508269 0.003523543 -0.008223397 0.0013605232
000310 9b 9a 10 3d 3e e9 56 3b d7 de 29 3c 0e cd cd 3b
       0.035303693 0.0032792832 0.010368071 0.006280548
000320 d7 3b 0b 3c 66 90 7a 3b 25 9a 6d bc 10 53 0b 3c
       0.008498154 0.003823304 -0.014502083 0.00850369
000330 c1 51 29 3d b2 db 81 bb c9 aa 9f bc a5 ee ee 3b
       0.041337732 -0.0039629573 -0.019490616 0.0072916322
000340 6b 29 c0 3c 75 ec 09 bc 89 ea 73 bc 66 4e 45 bb
       0.02345725 -0.008418192 -0.0148874605 -0.0030106544
000350 90 7d 9f 3a 96 f6 cb bb fb c2 8f bb 4e a3 61 bc
       0.0012168158 -0.0062244637 -0.004387257 -0.013771845
000360 49 60 2d bc 6d e4 99 3b 77 9b 97 3c 2f 3d 98 bb
       -0.010582038 0.00469642 0.018506749 -0.0046459655
000370 48 d0 a9 3c 00 2f f7 3a 4e 47 02 3c 35 68 83 3c
       0.020729199 0.0018858612 0.007951571 0.0160409
000380 ef 49 03 3b ce a9 13 bc 88 86 10 bc f8 47 d0 3c
       0.0020033082 -0.009012653 -0.008821137 0.025424942
000390 d1 23 56 3c 0d d3 57 3d 34 19 47 bc 74 64 d9 ba
       0.013070063 0.052691508 -0.012152005 -0.0016585723
0003a0 e3 da 7b bc 95 7d 87 3c d8 de b2 3b 46 95 dc bc
       -0.015372011 0.016539374 0.005458694 -0.026926648
0003b0 ed 78 28 bd ce 6b a3 3b 2a 35 9b bc de 40 3c bc
       -0.04113095 0.0049872166 -0.018946249 -0.011490075
0003c0 f5 f9 7b 3b e6 9a 82 3c e7 f3 20 3c a5 3e 16 3d
       0.0038448547 0.015943002 0.009823776 0.036680836
0003d0 3b a9 1b 3b 77 3a 74 3c 5f 42 6d 3c 02 4d c1 3c
       0.0023751992 0.014906517 0.014481156 0.02359629
0003e0 9f 03 c0 3a 17 c4 39 ba b2 9c 50 3b f3 80 53 3c
       0.0014649517 -0.00070864096 0.003183168 0.012909162
0003f0 9d ae b9 3b da 3a 77 3c c2 7c 3f 3c 35 7e b1 bc
       0.0056665675 0.015089715 0.011687459 -0.021666626

actor.6.bias f4 [22]
000000 89 d0 52 3d 5d d1 c8 bc fd d6 84 bc 5b f9 9c 3d
       0.051468406 -0.024513895 -0.016215796 0.07664748
000010 b7 72 0a 3d 56 1e 4d bd 97 38 48 bd 25 ec b8 bd
       0.033800807 -0.05007776 -0.048882093 -0.09029416
000020 2c 7c 9d bd 22 80 8c bd a0 d7 89 bc 60 e3 7a 3d
       -0.076896995 -0.06860377 -0.01682645 0.061251998
000030 71 b1 87 3c a5 d9 89 3c 55 08 42 3d 22 a3 39 3d
       0.016564103 0.016827414 0.047371227 0.04532159
000040 55 ec db 3c 4e 36 4f 3c 7d 40 68 3d 79 09 67 bc
       0.02684609 0.012647225 0.056702126 -0.01410138
000050 72 60 67 3b c6 03 9e 3d
       0.0035305289 0.077155635

normalizer._mean f4 [1, 75]
000000 b8 21 61 ba 44 76 14 bc c6 d2 93 3b 6f 48 0e bd
       -0.00085880933 -0.0090614 0.00451121 -0.034737047
000010 dd a6 0b bb d4 29 7e bf 74 45 61 39 a2 42 b1 38
       -0.0021309175 -0.99282575 0.00021483545 8.452429e-05
000020 2b ff 9d bc b6 d5 80 3d d8 4f 82 bb a2 6c 0b ba
       -0.019286713 0.06290762 -0.0039768033 -0.0005318617
000030 75 2a 93 bc 78 f8 8a bd b0 14 21 bc 2a 2f 8f 3b
       -0.017964581 -0.06785673 -0.009831592 0.004369636
000040 eb 35 d4 bc 2a e5 0d 3d ab 5b d3 bb f5 9a ab 3d
       -0.025904616 0.034642376 -0.0064501367 0.08379165
000050 3a 5c d4 bb bf 56 af bb 98 98 12 bd 2c aa 15 bd
       -0.006480721 -0.005350917 -0.035790056 -0.03653924
000060 1a e5 8e 3b ce 1b ba 3d 7c 54 18 bc 9d 8d 91 3b
       0.004360807 0.090873346 -0.009297486 0.0044419304
000070 d8 00 0f ba 64 06 51 b9 8a 59 b1 3a ed 92 ad 3b
       -0.0005455143 -0.00019934174 0.0013530713 0.005297056
000080 38 a6 e2 ba d5 ca 91 ba 10 d4 cc ba e9 61 c8 bb
       -0.0017291969 -0.0011123071 -0.0015627164 -0.0061151874
000090 f7 80 9d ba 6e 7e 27 3b d7 3d 45 3a ac 45 88 39
       -0.0012016584 0.0025557536 0.00075241685 0.0002599185
0000a0 59 07 39 ba 70 46 90 3c e2 8a 9e 3a 55 b3 9b b9
       -0.0007058285 0.017611712 0.0012095834 -0.00029697517
0000b0 4b a4 43 ba 8b d5 cf b7 12 f5 cb b7 e7 0a 97 3c
       -0.0007463141 -2.4775762e-05 -2.4313606e-05 0.018437816
0000c0 71 6c 36 b8 ec f3 8b 3a ce 67 88 3a b6 d3 e1 bb
       -4.3493175e-05 0.0010677553 0.0010406913 -0.006891693
0000d0 76 e6 bf bd e6 61 8f 3e d2 04 91 bc e4 a3 95 bb
       -0.09370129 0.28004378 -0.017702494 -0.0045666564
0000e0 7d fb b5 bd 8a bb 99 be cc b3 25 bd 01 97 b1 3c
       -0.08885858 -0.30025893 -0.04045467 0.02167845
0000f0 1e 35 2e bd 1b 2c 40 3e f2 00 1c bd 3b 39 50 be
       -0.042531125 0.18766825 -0.03808684 -0.20334332
000100 e5 2d 71 3d fb 07 bb 3c db 46 63 bd ab 58 47 be
       0.05888166 0.022830954 -0.055487495 -0.19467418
000110 73 3b 12 3d 2e 26 60 be 47 1b 37 3d cb 10 d1 bc
       0.035701226 -0.21889564 0.044703748 -0.025520703
000120 16 a5 89 3d 7d 71 db b9 b0 ea 16 ba
       0.06720941 -0.0004185549 -0.0005757017
